Layer name, IFMAP Height, IFMAP Width, Filter Height, Filter Width, Channels, Num Filter, Strides,

Neural Collaborative Filtering(Recommendation),
MF_Embedding_user, 1, 1, 1, 1, 138000, 8, 1,
MF_Embedding_item, 1, 1, 1, 1, 138000, 8, 1,
MLP_Embedding_user, 1, 1, 1, 1, 138000, 32, 1,
MLP_Embedding_item, 1, 1, 1, 1, 138000, 32, 1,
MLP_FC1, 1, 1, 1, 1, 64, 32, 1,
MLP_FC2, 1, 1, 1, 1, 32, 16, 1,
MLP_FC3, 1, 1, 1, 1, 16, 8, 1,
Predict_FC, 1, 1, 1, 1, 16, 1, 1,
